my_cnn_model.tflite (tflite, 999048 bytes, 11 tensors)

arith.constant f4 [256]
0	0xbcf333be	-0.029687759
1	0xbc9ced2f	-0.019156067
2	0xbc53ca66	-0.0129266735
3	0xbd4474b9	-0.047962878
4	0x3d0fa444	0.035068765
5	0xbc8bc2a6	-0.017060589
6	0x3d80810b	0.06274613
7	0xbc53bab9	-0.012922936
8	0x3d8d720a	0.06906517
9	0xbcce6ae5	-0.025197456
10	0x3cfda76b	0.03096362
11	0x3d7d59a2	0.06185306
12	0xbcd75988	-0.026287809
13	0x3d5eec0c	0.05442433
14	0x3d4bbcbb	0.049740534
15	0x3d30be2a	0.043150105
16	0xbd20c805	-0.039253253
17	0x3d4fbfce	0.05072003
18	0xbcaee5a0	-0.021349728
19	0xbd0d29ac	-0.03446357
20	0x3d84dc59	0.064873405
21	0x3d39f02c	0.04539506
22	0x3d2b0758	0.04175505
23	0xbd050cf8	-0.03248307
24	0xbb004bfa	-0.0019576536
25	0x3d26baea	0.0407056
26	0xbcc69bde	-0.024244245
27	0x3b316768	0.0027069692
28	0x3d393ae1	0.045222167
29	0x3d39dc60	0.04537618
30	0xbce24c0f	-0.027624158
31	0xbd1427a3	-0.036170613
32	0x3d91f6ad	0.07127128
33	0x3ce67d36	0.028135877
34	0x3d4509c2	0.04810501
35	0x3d60a357	0.054843273
36	0xbc812b06	-0.015767585
37	0x3d494a52	0.049143143
38	0xba654783	-0.0008746313
39	0xbd004fb3	-0.031326007
40	0xbccba5f5	-0.024859408
41	0x3d73ac8f	0.059490737
42	0x3d39c618	0.045354933
43	0xbd2ba1c6	-0.041902326
44	0xbd0c8d28	-0.034314305
45	0x3d290479	0.04126403
46	0x3d3f09d8	0.046640247
47	0xbd21a2da	-0.039461948
48	0xbcae66e7	-0.021289302
49	0x3d08a01f	0.03335583
50	0x3cb8b7cf	0.022548584
51	0xbd090e5b	-0.033460956
52	0xbb03970d	-0.0020079047
53	0xbd08930c	-0.03334336
54	0x3d814aeb	0.063131176
55	0x3d6c96b5	0.057760913
56	0x3d4970c7	0.04917982
57	0xbd78963b	-0.060690146
58	0x3b1017c0	0.0021986812
59	0x3d9a4e1c	0.075344294
60	0x3d37de30	0.04488963
61	0x3d0c0777	0.034186807
62	0xbbdcc81f	-0.0067377235
63	0x3d5a6e8b	0.05332808
64	0x3d1737e8	0.03691855
65	0xbd16083a	-0.03662894
66	0x3d0d9a51	0.034570996
67	0x3d09c689	0.033636604
68	0x3d4e3f19	0.050353143
69	0xbce93d19	-0.028471516
70	0xbd1d02a3	-0.038332593
71	0xbcce2c1f	-0.025167523
72	0xbcd3e6af	-0.025866834
73	0xbd447aaf	-0.047968563
74	0xbd1cca6f	-0.038278993
75	0x3d363a2b	0.044489067
76	0xbc848a7d	-0.016179318
77	0x3d9e8eb7	0.077420644
78	0xbd09c6eb	-0.03363697
79	0x3d3a4b32	0.045481868
80	0x3cb808be	0.022465106
81	0x3da7a4d1	0.08185733
82	0x3d16c265	0.036806483
83	0xbd0ab4bf	-0.03386378
84	0xbcb1a64b	-0.02168574
85	0xbcc80039	-0.024414169
86	0xbce7ec15	-0.028310815
87	0xbd538ee9	-0.05164996
88	0x3b730125	0.003707954
89	0x3d3374ab	0.043812435
90	0xbc3e3d3f	-0.011611282
91	0xbd117bd0	-0.035518467
92	0xbcd45528	-0.025919512
93	0xbce4ed04	-0.02794505
94	0xbd4058e7	-0.046959784
95	0x3d38a812	0.04508216
96	0xbc8063fe	-0.01567268
97	0xbd242704	-0.04007627
98	0x3d31c0d5	0.04339679
99	0xbcd38c98	-0.025823876
100	0x3d3996c6	0.045309804
101	0x3d1be866	0.03806343
102	0xbd1ea6fe	-0.038733475
103	0x3d313322	0.043261655
104	0x3d3394dc	0.043843135
105	0xbd22e87a	-0.03977249
106	0x3d48e34e	0.0490449
107	0x3d23584e	0.039879136
108	0xbce1c6b6	-0.027560573
109	0xbcb5b3fe	-0.022180554
110	0x3d92fe3a	0.07177396
111	0x3d41bc49	0.047298703
112	0xbb956d96	-0.004560183
113	0x3d8598fe	0.065233216
114	0xbd06ef23	-0.032942902
115	0xbca00c62	-0.019537155
116	0x3ca513a3	0.020150965
117	0x3d74e0a6	0.059784554
118	0xbbd8fb17	-0.006621729
119	0x3d2ca99e	0.042153947
120	0xbd4f0397	-0.050540533
121	0x3d82aa54	0.06380144
122	0xbcf13fc2	-0.029449347
123	0x3d2a0332	0.041506954
124	0x3d1474d3	0.036244225
125	0xbcb9bbd5	-0.022672573
126	0xbc93cf20	-0.0180431
127	0xbcd64cfc	-0.026159756
128	0xbcdf019c	-0.027222447
129	0x3cccda3f	0.025006412
130	0xbc327ee7	-0.010894514
131	0x3d0c68f9	0.034279797
132	0xbcf57331	-0.029962154
133	0xbc8dddb6	-0.017317634
134	0xbcb3ea6a	-0.021962363
135	0xbcb4625f	-0.022019563
136	0xbd6b23dc	-0.057407245
137	0xbd0f4a0c	-0.034982726
138	0x3d0329ab	0.03202216
139	0xbccf8a69	-0.025334554
140	0x3d8a82c3	0.06763222
141	0x3d1ff632	0.03905315
142	0xbc8d0a54	-0.017216839
143	0x3d6c9eaa	0.0577685
144	0xbc0e563b	-0.008687551
145	0xbca22579	-0.019793259
146	0x3d6f8a42	0.058481462
147	0xbd13f4bf	-0.03612208
148	0x3d2cbb87	0.042171028
149	0x3d4ae1ba	0.049531676
150	0xbd0ac489	-0.033878837
151	0x3cf632a7	0.03005345
152	0xbd0a7721	-0.033805016
153	0x3d566874	0.052345708
154	0xbc89e637	-0.016833408
155	0x3d495c0c	0.04916005
156	0xbcd72b37	-0.026265724
157	0xbcc5cec6	-0.024146449
158	0x3d2f0a33	0.042734336
159	0xbd080be2	-0.033214457
160	0xbcc162db	-0.023606708
161	0x3d653589	0.05595926
162	0xbc9474ad	-0.018122042
163	0xbc62a339	-0.013832861
164	0xbc91d3dc	-0.017801218
165	0xbc4615f3	-0.012090194
166	0x3d48dbe3	0.049037825
167	0xbc3bf51e	-0.011472015
168	0x3d21552c	0.039387867
169	0x3d2bd366	0.041949652
170	0x3d52ac2d	0.05143373
171	0x3d2bf02d	0.041977096
172	0xbcf7168b	-0.030162117
173	0x3d7d0b47	0.061778333
174	0xbca01d1a	-0.019545127
175	0x3d07b3dc	0.03313051
176	0xbc935d1b	-0.017988732
177	0xbcdee194	-0.027207173
178	0xbc4f4615	-0.012650986
179	0x3d6f876f	0.05847877
180	0xbd5b5fc3	-0.053558122
181	0x3d8d4cac	0.068993896
182	0x3d1c7fc3	0.03820778
183	0xbcfa96a3	-0.030589407
184	0x3d2fbe12	0.042905875
185	0xbcf7400a	-0.030181903
186	0xbd11d628	-0.035604626
187	0xbc37aeee	-0.01121114
188	0xbce5d8f3	-0.028057551
189	0xbc9cbe23	-0.019133633
190	0xbc99bf88	-0.018768087
191	0x3d27db0b	0.04098038
192	0x3d40f070	0.0471043
193	0x3d5a0634	0.053228572
194	0xbccbd555	-0.024881998
195	0xbca59efc	-0.020217411
196	0xbcfddaa8	-0.030988052
197	0x3d759bbf	0.059962984
198	0xbc9f6d18	-0.0194612
199	0xbd05b915	-0.03264721
200	0x3d0722c0	0.032992125
201	0xbd23eec0	-0.04002261
202	0x3cf8636a	0.030320842
203	0x3d10d267	0.035356905
204	0x3d465411	0.048420016
205	0x3d7b61d8	0.061372608
206	0xbd7baab2	-0.061442085
207	0x3d66ac85	0.05631687
208	0xbd3d8d68	-0.046277434
209	0xbd40cb75	-0.04706903
210	0x3d8990dd	0.067170836
211	0xbc8abd64	-0.016936012
212	0xbd3217f1	-0.043479864
213	0xbd24a23c	-0.04019378
214	0x3d56b3a4	0.052417412
215	0xbcb81897	-0.022472663
216	0x3d664993	0.05622251
217	0xbca9b536	-0.02071629
218	0xbcc00a67	-0.02344246
219	0x3d249ed1	0.04019052
220	0xbd0df694	-0.034658983
221	0xbd089463	-0.033344638
222	0x3d5b3233	0.05351467
223	0xbce28d0d	-0.027655149
224	0x3b1117fc	0.002213954
225	0xbd062049	-0.032745633
226	0xbd15f7c1	-0.03661323
227	0xbce15a20	-0.027508795
228	0x3c931527	0.017954422
229	0x3d8bc4d9	0.06824655
230	0xbcb03985	-0.021511802
231	0xbcc7486c	-0.024326526
232	0xbc89dc4d	-0.01682868
233	0xbd189ce6	-0.037259005
234	0x3d60263a	0.054723956
235	0x3d30f0c8	0.043198377
236	0x3d5edf11	0.05441195
237	0x3d3e018a	0.046388187
238	0xbcb07c1a	-0.021543551
239	0xbcb9b455	-0.022668997
240	0xbc532768	-0.012887813
241	0x3d2ab107	0.041672733
242	0xbc9ef372	-0.019403193
243	0xbc04458c	-0.008073222
244	0x3d907368	0.07053262
245	0xbc331dc5	-0.010932391
246	0xbbec674a	-0.0072144615
247	0x3cd98bf1	0.026555987
248	0x3d3df7a2	0.04637874
249	0x3d1ddf8d	0.038543273
250	0xbcd09804	-0.025463112
251	0xbd100e00	-0.0351696
252	0xbd2dc406	-0.04242327
253	0x3d436d05	0.04771139
254	0xbcb6220b	-0.02223303
255	0x3d492fb2	0.04911775

arith.constant1 f4 [16]
0	0x3d84da52	0.06486954
1	0xbce5e8eb	-0.028065166
2	0xbcb8b9d8	-0.022549555
3	0xbcb64ebd	-0.022254342
4	0xbd4f2998	-0.050576776
5	0xbcb61681	-0.022227528
6	0xbc925b4b	-0.017865798
7	0xbc563608	-0.0130744055
8	0x39291bdb	0.00016127473
9	0xbd56d1da	-0.052446224
10	0x3d4e8413	0.050418925
11	0x3d662907	0.05619147
12	0xbcf3bde1	-0.029753627
13	0xbcacd427	-0.021097256
14	0xbd2cc91e	-0.042183988
15	0xbd707c47	-0.05871227

arith.constant2 f4 [32]
0	0xbc131802	-0.008977892
1	0xbcf9066a	-0.030398566
2	0x3cb6173b	0.022227874
3	0x3d48d986	0.04903557
4	0x3d7cfea1	0.06176627
5	0x3d9bae1d	0.07601569
6	0xbb6b86e3	-0.0035938553
7	0xbc87833f	-0.016542075
8	0xbca75125	-0.020424435
9	0xbcd3fa85	-0.025876293
10	0xbd2783bd	-0.04089712
11	0xbd13474d	-0.03595667
12	0xbd9d756b	-0.07688411
13	0xbc0084b2	-0.007844137
14	0xbd30595d	-0.043053973
15	0xbcc599d9	-0.024121212
16	0xbd707467	-0.05870476
17	0x3d1c7fb8	0.03820774
18	0xbcf78716	-0.030215781
19	0xbbcc22e1	-0.006229744
20	0xbcbec19f	-0.023285685
21	0x3c60c753	0.013719398
22	0xbd2cc192	-0.04217679
23	0x3d282cb4	0.041058257
24	0x3c770fbe	0.015079437
25	0xbc64fec9	-0.013976761
26	0xbcd8a222	-0.026444498
27	0xbc219619	-0.009862446
28	0x3d2a5511	0.041585032
29	0xbc8f57b4	-0.017497875
30	0xbbee5652	-0.007273474
31	0xbc3d49f2	-0.0115532745

arith.constant3 f4 [64]
0	0x3af3d239	0.001860208
1	0xbc061d99	-0.008185768
2	0xbc4615f3	-0.012090194
3	0xbc868337	-0.01641999
4	0x3c383464	0.01124296
5	0x3b2f6c0c	0.0026767282
6	0xbcadafd2	-0.021202002
7	0xbc706e8a	-0.014674792
8	0xbcd14f0f	-0.025550393
9	0xbce8d73d	-0.028422946
10	0xbc1851ce	-0.0092968475
11	0xbc027b55	-0.007963975
12	0xbc25960e	-0.010106577
13	0xbd02d703	-0.031943332
14	0xbc39b4fa	-0.011334652
15	0xbb849994	-0.0040466283
16	0x3d29ce77	0.041456666
17	0x3d461a76	0.04836508
18	0xbc825871	-0.015911313
19	0x3d937764	0.07200506
20	0xbbd0f560	-0.006376907
21	0xbc5cca1f	-0.013475924
22	0xbcc8d446	-0.024515282
23	0xbc421828	-0.01184658
24	0xbb61dd42	-0.0034464155
25	0xbb6a07cc	-0.0035710214
26	0xbc55ce42	-0.013049664
27	0xbc4debca	-0.0125684235
28	0xbcdb670a	-0.026782531
29	0x3d08cd7a	0.033399083
30	0xbb0b9d35	-0.002130342
31	0xbb5d9a79	-0.0033813997
32	0xbb423a19	-0.002963668
33	0xbc8973b6	-0.016778808
34	0x3cd03b1a	0.025418807
35	0xbb84113f	-0.004030376
36	0x3cce6543	0.02519477
37	0xbbfbdef4	-0.00768649
38	0xbb793d3e	-0.0038030888
39	0x3c7f3fa9	0.015579143
40	0xbbad93db	-0.0052971668
41	0xbbe7fd3a	-0.0070797475
42	0xbb9d7894	-0.004805634
43	0xbc256148	-0.010093994
44	0xbb53485a	-0.003223917
45	0xbb00c47b	-0.0019648361
46	0xbb909947	-0.0044128033
47	0x3d0c7f1a	0.0343009
48	0xbca46915	-0.020069638
49	0xbbc14101	-0.0058976416
50	0xbcbf032d	-0.023316944
51	0xbb97b7cf	-0.004630066
52	0xbc3ac9d9	-0.011400663
53	0xbc5eee58	-0.01360663
54	0xbc2a22f3	-0.010384309
55	0x3c49820d	0.012299073
56	0xbb8d70e4	-0.004316436
57	0xbc7ed4a2	-0.015553625
58	0xbb7443f9	-0.003727196
59	0xbbf5d349	-0.007501994
60	0xbc2ccc86	-0.010546809
61	0xbb17c558	-0.0023158398
62	0xbbbd968f	-0.0057857702
63	0xbbefa9ab	-0.007313927

arith.constant5 f4 [16, 3, 3, 32]
0	0x3c9711f3	0.018441176
1	0xbd82bf4c	-0.06384143
2	0x3e1840be	0.14868447
3	0x3ca5f762	0.020259563
4	0xbd8d072a	-0.06886132
5	0xbda0e7f8	-0.078567445
6	0x3daa8a54	0.08327165
7	0x3d9dee5a	0.077114776
8	0x3db49304	0.088171035
9	0xbc3f3bf0	-0.011672005
10	0xbdc4c250	-0.09607375
11	0xbcd075a0	-0.025446713
12	0x3837f214	4.3856053e-05
13	0x3c7fefe4	0.015621159
14	0xbe155c99	-0.14586104
15	0xbdc6490e	-0.09681903
16	0x3d3c25e4	0.045934573
17	0x3db3d8cc	0.08781585
18	0xbd70f44b	-0.058826726
19	0x3b95ebd7	0.0045752334
20	0x3d44a906	0.048012756
21	0x3c05540d	0.008137715
22	0x3ddd37f6	0.10801689
23	0x3cb122ed	0.0216231
24	0x3db0b1ac	0.08627638
25	0xbdaf4509	-0.08558089
26	0xbcd9aac1	-0.02657068
27	0xbd2bee5c	-0.041975364
28	0xbd992f45	-0.07479719
29	0x3cf44312	0.029817138
30	0x3dffaa25	0.12483624
31	0x3deb1bc2	0.11479904
32	0x3cb7d4fb	0.022440424
33	0xbdc6084e	-0.09669553
34	0x3dfd6011	0.12371839
35	0x3d87d1e9	0.06631834
36	0x3c8962a1	0.016770663
37	0x3e3da8dc	0.18521446
38	0x3de6ef3c	0.11276099
39	0x3d58e949	0.052956853
40	0xbde1d968	-0.11027795
41	0xbe06b139	-0.13153543
42	0xbdbfa4bb	-0.09357592
43	0x3dd54a01	0.10414506
44	0xbda71df9	-0.08160014
45	0xbc1d1d4a	-0.009589503
46	0x3d9b733b	0.07590338
47	0x3d2d8809	0.04236606
48	0x3dc66e1b	0.0968897
49	0xbdd75282	-0.10513784
50	0xbdc81dfc	-0.09771344
51	0x3bd88b9a	0.0066084387
52	0x3d8b5e43	0.06805088
53	0x3dd27bf8	0.102775514
54	0x3dffa12c	0.12481913
55	0x3d25d6e7	0.04048815
56	0xbd7347fa	-0.059394814
57	0xbd2780a5	-0.04089417
58	0xbdd2c84d	-0.102921106
59	0xbd8241fc	-0.06360242
60	0x3dc5ddca	0.096614435
61	0xbdb18496	-0.08667867
62	0xbdfd57c6	-0.12370257
63	0xbd15618b	-0.036469977
64	0xbc3c08c5	-0.0114767
65	0xbe029194	-0.12750846
66	0x3dff5cf3	0.124689005
67	0xbdb514f9	-0.08841891
68	0x3de411da	0.111362174
69	0xbc6bf39c	-0.014401343
70	0x3c0fcac8	0.008776374
71	0xbe1df60d	-0.15425892
72	0xbdf072e0	-0.11740661
73	0xbc85ff3f	-0.016357062
74	0xbdb1f37b	-0.08689018
75	0x3cbfa862	0.02339572
76	0xbd7556a9	-0.0598971
77	0xbcc64c3f	-0.024206279
78	0x3d981dc6	0.07427554
79	0xbccdaeb5	-0.02510772
80	0xbc8b89d9	-0.017033504
81	0x3d9fe1c4	0.07806733
82	0xbd1202f9	-0.035647366
83	0xbdd51023	-0.104034685
84	0x3d174300	0.03692913
85	0x3b162d38	0.0022915136
86	0xbc2b90b9	-0.010471516
87	0x3de6d47d	0.11270998
88	0xbdc2c6f3	-0.09510603
89	0xbd787c36	-0.06066533
90	0xbe08ba69	-0.1335236
91	0xbdd1aa9c	-0.10237619
92	0xbdedcf00	-0.11611748
93	0x3d7c0ebc	0.06153749
94	0xbde352f2	-0.11099805
95	0x3ba01851	0.0048857112
96	0xbdbfd466	-0.09366684
97	0x3e0ec767	0.13943253
98	0xbd895baa	-0.06706937
99	0x3e060cf2	0.13090876
100	0xbbaf2e19	-0.0053460714
101	0x3d9db255	0.0770003
102	0x3d9bba76	0.07603924
103	0x3dbd8019	0.09252948
104	0x3d042bbc	0.03226827
105	0xbbfad3b0	-0.0076546296
106	0x3cc21260	0.023690403
107	0x3dd13f99	0.102172084
108	0xbe20b9dc	-0.156959
109	0xbb444cf7	-0.0029953101
110	0xbe328d5f	-0.17436741
111	0xbdcb55d5	-0.099284805
112	0xbd6f402b	-0.058410805
113	0xbd611734	-0.05495377
114	0x3dc70f4a	0.09719713
115	0xbc73d7b8	-0.014882974
116	0x3dd0f78e	0.10203467
117	0xbd3c563f	-0.04598069
118	0x3db05817	0.08610552
119	0x3cdc5342	0.02689517
120	0x3de350c7	0.110993914
121	0x3c9569c5	0.018238911
122	0x3d6850a4	0.05671753
123	0x3d84b3ae	0.06479584
124	0xbd99ef95	-0.075164
125	0x3d94d553	0.07267251
126	0xbdae5d78	-0.085139215
127	0x3ce4e50d	0.027941251
128	0xbde01e40	-0.1094327
129	0xbccaec61	-0.024770917
130	0x3e2ccb2c	0.16874379
131	0xbdc17d57	-0.09447735
132	0x3decc7af	0.11561524
133	0x3d5506ab	0.052008312
134	0x3dc6c9c2	0.09706451
135	0xbdbc7e4e	-0.09203778
136	0xbd0f4f00	-0.03498745
137	0xbd712d19	-0.0588809
138	0xbd904c68	-0.07045823
139	0x3d091d31	0.033475105
140	0xbe0f5b38	-0.13999641
141	0xbd9b7152	-0.075899735
142	0xbd8e505a	-0.069489196
143	0xbd4ff15c	-0.050767288
144	0xbdbac795	-0.091200985
145	0x3dab6f8f	0.083708875
146	0xbd7bc878	-0.06147048
147	0xbd5c3f03	-0.05377103
148	0xbc760b6e	-0.0150173735
149	0xbdcc0bce	-0.09963189
150	0xbd72a5de	-0.059240215
151	0xbd95be94	-0.073117405
152	0xbd777e9e	-0.060423486
153	0x3cb13581	0.021631958
154	0xbd8b05d3	-0.0678822
155	0xbd999f9f	-0.075011484
156	0xbd74dd33	-0.059781265
157	0x3dae2d1f	0.085047
158	0xbcb65986	-0.022259485
159	0xbda6bbbf	-0.081412785
160	0x3dc2762d	0.094951965
161	0xbb97f386	-0.0046371846
162	0x3c0f8d49	0.008761712
163	0x3ad094ef	0.0015913526
164	0x3d7eda32	0.062219806
165	0x3d9ed5ba	0.07755609
166	0xbdc2d83d	-0.095139004
167	0x3dab3f2e	0.0836166
168	0xbd22b6fa	-0.03972528
169	0xbd141422	-0.036152013
170	0xbc37b4d7	-0.011212549
171	0x3c94ed51	0.018179568
172	0xbd7928cb	-0.06082992
173	0x3d8b9702	0.06815912
174	0x3d9e2c61	0.07723308
175	0xbd4f3937	-0.050591674
176	0x3ba4225b	0.0050089783
177	0xbe00a3d7	-0.125625
178	0x3ddeff5e	0.10888551
179	0xbad3943f	-0.0016142203
180	0xbd441ef2	-0.047881074
181	0x3e07280f	0.13198875
182	0xbd1e4aca	-0.038645543
183	0xbd826276	-0.06366436
184	0xbddd7c85	-0.10814766
185	0xbd7bcf6b	-0.061477106
186	0xbdc26385	-0.09491638
187	0xbb981773	-0.0046414672
188	0x3d32d4c4	0.04365994
189	0xbbda48e3	-0.006661521
190	0x3c2d5606	0.010579592
191	0xbae3e526	-0.0017387017
192	0xbcdf824d	-0.027283812
193	0x3cc244a8	0.023714378
194	0xbd9d23cf	-0.076728456
195	0x3e1212d0	0.14264989
196	0xbd5d7b13	-0.05407245
197	0x3de8fd9c	0.11376497
198	0xbd4b09cb	-0.049569886
199	0xbd9b8db6	-0.075953886
200	0x3d1bc5b6	0.03803035
201	0x3d4fbcfd	0.050717343
202	0x3d78edae	0.060773544
203	0x3da02a75	0.07820598
204	0xbd12a2b1	-0.035799686
205	0x3dc469ac	0.09590468
206	0xbd5b4bda	-0.053539135
207	0xbd9e635a	-0.077337936
208	0xbd406566	-0.0469717
209	0x3bedfaf1	0.0072625806
210	0xbb876e5c	-0.004133029
211	0xbb7205e2	-0.0036929776
212	0x3c8d3a8a	0.017239828
213	0x3d17c822	0.037056096
214	0xbc58cbe8	-0.013232209
215	0x3de5142d	0.11185489
216	0x3e0f75ab	0.1400973
217	0xbdca00d1	-0.09863437
218	0x3a31eec7	0.0006787595
219	0xbdd5ce8b	-0.104397856
220	0x3d9dc034	0.077026755
221	0xbddc8a44	-0.107685596
222	0x3dabbe8a	0.08385952
223	0x3bcbe266	0.006222057
224	0x3db65ddd	0.08904622
225	0xbd42b612	-0.047536917
226	0xbde57c88	-0.11205393
227	0x3c9f6a09	0.019459741
228	0x3de7cdf8	0.11318582
229	0x3d99032a	0.074713066
230	0x3c965f78	0.01835607
231	0x3df9816b	0.12182888
232	0xbd7c3aac	-0.06157939
233	0x3de110ac	0.10989508
234	0x3d8ca662	0.068676725
235	0xbd5a144a	-0.053242005
236	0x3d355171	0.04426712
237	0x3cccbb00	0.024991512
238	0xbdcf052c	-0.10108408
239	0xbd79b8a8	-0.060967118
240	0xbd5ddee1	-0.054167632
241	0x3d84b3cc	0.06479606
242	0x3d95e72d	0.07319484
243	0x3d73b2e7	0.059496786
244	0x3d413a7b	0.047174912
245	0x3d5dc448	0.054142267
246	0xbde01544	-0.10941556
247	0x3e001ec8	0.12511742
248	0x3d130b2b	0.035899322
249	0x3dfe18b4	0.124070555
250	0x3da76226	0.08173017
251	0x3b8a4956	0.004220168
252	0x3dea1b1c	0.11430952
253	0x3caaa557	0.020830793
254	0xbdab5b98	-0.083670795
255	0x3d7195a4	0.0589806

arith.constant6 f4 [32, 3, 3, 64]
0	0xbcf623f6	-0.030046444
1	0xbd367708	-0.04454711
2	0x3d76c3c4	0.06024529
3	0x3d729c6c	0.059231207
4	0x3d52dc88	0.051479846
5	0x3cacb55b	0.02108257
6	0x3d769fb4	0.0602109
7	0xbd8f1ea6	-0.069882676
8	0xbd3cdb6e	-0.046107702
9	0x3c383529	0.011243143
10	0xbd2a8293	-0.04162843
11	0xbd9b8817	-0.075943165
12	0x3d75e011	0.06002814
13	0x3d33bf5a	0.04388366
14	0xbdb50e1e	-0.08840583
15	0xbd1a702a	-0.037704624
16	0x3d5cddc9	0.05392245
17	0xbd837eea	-0.06420691
18	0x3c9ca211	0.019120248
19	0xbcc31255	-0.023812452
20	0x3b72b69f	0.003703512
21	0x3d07e020	0.033172727
22	0xbb698a16	-0.0035635284
23	0x3cc362c5	0.023850808
24	0xbdb61803	-0.088912986
25	0x3c27060c	0.010194313
26	0x3bfadaf9	0.007655498
27	0x3cba4989	0.022740142
28	0x3d427058	0.04747042
29	0xbda0642e	-0.07831608
30	0x3cc820e3	0.024429744
31	0x3ce43de3	0.027861541
32	0x3c0e9712	0.00870301
33	0xbd127146	-0.035752557
34	0xbd12ee8b	-0.035872024
35	0xbda731d2	-0.08163799
36	0xbd0925f0	-0.033483446
37	0xbd1a02c0	-0.03760028
38	0x3ceedfce	0.029159453
39	0xbc612b32	-0.013743209
40	0xbd61d011	-0.05513007
41	0x3d79c708	0.060980827
42	0x3cf8b0fb	0.030357828
43	0xbd3e9062	-0.046524413
44	0xbdb9c849	-0.090714045
45	0xbd6a0262	-0.05713118
46	0x3d8539d6	0.06505172
47	0xbdb2fcff	-0.087396614
48	0x3d052e26	0.032514714
49	0x3c76a613	0.015054244
50	0x3d98945b	0.074501716
51	0xba1c2fdc	-0.00059580593
52	0x3d8c27c7	0.068435244
53	0xbc964821	-0.01834494
54	0x3d4e5dbe	0.05038237
55	0x3bb725ad	0.005589208
56	0x3d7e4e0c	0.06208615
57	0x3d014df4	0.031568483
58	0x3d9916e5	0.0747507
59	0x3d9594fb	0.073038064
60	0x3ca42a9d	0.02003985
61	0x3c909dac	0.017653309
62	0x3d5f5aa1	0.05452979
63	0xbd108f48	-0.035292894
64	0xbd68f071	-0.056869928
65	0xbcfccd20	-0.03085953
66	0xbd8e285d	-0.069412924
67	0x3c02a4c5	0.007973854
68	0xbcf93026	-0.030418467
69	0xbd82e200	-0.06390762
70	0xbd49ed9a	-0.04929886
71	0xbd932389	-0.07184512
72	0x3d9efcc3	0.07763054
73	0xbae562c0	-0.0017500743
74	0x3c954056	0.018219154
75	0x3c466138	0.01210814
76	0x3ca085d4	0.019595064
77	0x3cee459b	0.029085925
78	0x3ccf19fa	0.025280941
79	0xbd6691df	-0.056291457
80	0xbd5742ad	-0.05255382
81	0xbd111aaa	-0.03542582
82	0x3d909e94	0.070614964
83	0x3d81e597	0.06342619
84	0x3d509ac9	0.050928865
85	0x3c1fa916	0.009744903
86	0xbc782853	-0.015146333
87	0x3d120ed6	0.03565868
88	0x3d75095e	0.059823386
89	0xbd93cedc	-0.0721719
90	0xbd3068bf	-0.043068644
91	0xbd2fc2a0	-0.04291022
92	0x3c63b920	0.013899118
93	0x3c87f245	0.016595015
94	0x3d0fa495	0.035069067
95	0x3cbeef5c	0.023307495
96	0xbdae88be	-0.08522175
97	0xbd5aa1bb	-0.053376894
98	0xbcc0c284	-0.023530252
99	0x3cf7ef80	0.03026557
100	0xbd48c74b	-0.049018186
101	0x3cf76dfa	0.030203808
102	0x3d046926	0.03232684
103	0xbdd34eaf	-0.10317742
104	0x3d9dbba2	0.07701804
105	0x3ce8d697	0.028422637
106	0x3cf41227	0.029793812
107	0xbd9465c3	-0.07245972
108	0x3d57477f	0.05255842
109	0xbc51cf2a	-0.012805739
110	0x3d305524	0.043049946
111	0x3c7a2073	0.015266526
112	0xbd402c71	-0.046917383
113	0x3d1740a8	0.036926895
114	0xbb6cacba	-0.0036113695
115	0x3d8959a5	0.067065515
116	0x3d3f7876	0.04674574
117	0xbda16f48	-0.07882553
118	0x3d962933	0.07332077
119	0x3c143d31	0.009047792
120	0xbd924ded	-0.071437694
121	0xbc2efb9b	-0.010680105
122	0x3d49f346	0.04930427
123	0xbda30e6a	-0.07961734
124	0x3ca3816e	0.019959178
125	0xbc63006f	-0.013855084
126	0x3d96e316	0.07367532
127	0x3d609e88	0.054838687
128	0x3caf64e3	0.021410411
129	0x3b05d2fe	0.002041995
130	0x3d5495ee	0.051900797
131	0xbdabcf5a	-0.083891585
132	0x3be6caa3	0.007043199
133	0x3d931a65	0.07182769
134	0xbcc59079	-0.024116741
135	0x3c886c48	0.016653195
136	0xbda7ba1a	-0.08189793
137	0xbcac8e9b	-0.021064093
138	0xbd3e6392	-0.046481676
139	0x3c3cfe24	0.011535201
140	0x3d5aa717	0.053382006
141	0x3c9730de	0.018455919
142	0x3c6c1ba7	0.01441089
143	0xbd82158c	-0.06351766
144	0xbdd8da36	-0.105884954
145	0x3a2bbfa3	0.00065516884
146	0x3d45f607	0.048330333
147	0xbd452d66	-0.048139
148	0xbd17458d	-0.036931563
149	0xbda1ae32	-0.07894553
150	0xbdb4b9e9	-0.08824522
151	0xbdba303f	-0.090912335
152	0x3d9a00d8	0.07519692
153	0xbd7f9547	-0.06239822
154	0xbbc59dbc	-0.0060307663
155	0x3d541786	0.051780246
156	0xbd3ede32	-0.04659862
157	0xbdb94cb6	-0.090478346
158	0xbd383353	-0.04497082
159	0x3cdde1c1	0.027085187
160	0x3beefbb0	0.007293187
161	0x3c48d330	0.012257382
162	0xbda5a2fb	-0.08087727
163	0x3c57f1f5	0.013180246
164	0xbd2345bb	-0.039861422
165	0xbd87668a	-0.06611355
166	0xbd274a3a	-0.040842272
167	0xbd733d2c	-0.05938451
168	0xbd477645	-0.048696775
169	0xbcaa6869	-0.02080174
170	0xbda0e14b	-0.07855471
171	0x3cb3be3c	0.021941297
172	0xbd61e5cb	-0.05515079
173	0xbcd6f287	-0.026238693
174	0xbcf81dc0	-0.030287623
175	0xbbdc45a3	-0.0067221685
176	0x3d4af4cd	0.049549866
177	0xbcb0530d	-0.021523977
178	0xbdbcf2f3	-0.092260264
179	0xbd035c86	-0.03207066
180	0xbd4d9023	-0.050186288
181	0x3d3699b6	0.044580184
182	0x3d88b43f	0.06675004
183	0xbda8cb63	-0.08241918
184	0x3d6c0244	0.05761935
185	0x3d2b325f	0.041796084
186	0xbd204084	-0.039124027
187	0xbd3e9953	-0.04653294
188	0xbc8ee8cb	-0.017444989
189	0xbd9f2a55	-0.07771746
190	0xbc0b683b	-0.008508737
191	0xbcd5bdd9	-0.026091503
192	0xbd5aac38	-0.053386897
193	0x3b806965	0.003918814
194	0xbd588140	-0.052857637
195	0xbc97fd5e	-0.018553432
196	0x3d728cdb	0.05921636
197	0xbd5b644f	-0.05356246
198	0x3d434039	0.04766867
199	0x3d51bdf2	0.051206537
200	0xbd168801	-0.036750797
201	0x3d9b9983	0.075976394
202	0x3ce770bf	0.028252004
203	0x3cab7943	0.020931846
204	0x3d8b4c06	0.0680161
205	0xbdb004ec	-0.08594689
206	0xbd7ec56e	-0.062200002
207	0x3d8a3a9f	0.06749462
208	0xbceddf31	-0.02903709
209	0x3d95b73f	0.07310342
210	0x3bfcdecf	0.0077169905
211	0x3ce22d65	0.027609536
212	0x3d0cb3f4	0.034351304
213	0x3d576317	0.052584734
214	0xbcc330f3	-0.023827052
215	0x3d2aa590	0.0416618
216	0x3ba8758e	0.0051409667
217	0x3b2e27bb	0.0026573974
218	0xbc67dcf4	-0.0141518
219	0xbd397ecc	-0.04528694
220	0xbdba42fd	-0.09094808
221	0xbd21db7f	-0.03951597
222	0xbd8495c6	-0.064738795
223	0x3d7b6cb2	0.061382957
224	0xbd68a2b6	-0.0567958
225	0xbd1158ed	-0.035485197
226	0xbd4b6421	-0.049656037
227	0xbb83d702	-0.0040234337
228	0xbdb2ec43	-0.087364696
229	0x3d10a7e9	0.03531638
230	0xbd57593c	-0.052575335
231	0x3d0f948b	0.03505377
232	0x3d304825	0.043037552
233	0xbd45a7da	-0.04825578
234	0x3cfe2208	0.031022087
235	0xbcfac2c8	-0.030610457
236	0x3ca2ead7	0.019887371
237	0xbd5955a9	-0.053060208
238	0x3c7f5d02	0.01558614
239	0xbd5938fc	-0.05303286
240	0x3c6f5a91	0.014608995
241	0xbd7ce7bd	-0.06174444
242	0xbd1ed903	-0.038781177
243	0x3d883fed	0.06652818
244	0xbd0d78e3	-0.034539115
245	0xbcb2bb0e	-0.02181771
246	0x3b244125	0.0025063243
247	0xbd88876c	-0.06666455
248	0xbd30dbf7	-0.043178525
249	0xbdb79983	-0.08964827
250	0xbc77419c	-0.015091326
251	0x3c4b746e	0.012417896
252	0xbd0eef1f	-0.034896012
253	0xbdb77dca	-0.08959539
254	0xbd8ab0e7	-0.06772023
255	0x3c0f6ec6	0.008754438

arith.constant7 f4 [64, 3, 3, 128]
0	0x3d40cd49	0.047070775
1	0x3b811671	0.003939443
2	0xbd02d1af	-0.03193825
3	0x3d59ef1b	0.053206544
4	0x3baa7609	0.005202059
5	0xbcb5f5fb	-0.02221202
6	0xbd8361e3	-0.06415155
7	0x3d20c25b	0.03924785
8	0xbd8ce17b	-0.068789445
9	0xbb6a4fb4	-0.0035753073
10	0x3c4077ce	0.011747314
11	0x3c95889e	0.01825362
12	0xbda4c9ed	-0.08046327
13	0xbc4aef23	-0.012386116
14	0x3da5dbcd	0.08098564
15	0x3bcf7cff	0.0063320394
16	0x3de5f1c3	0.11227753
17	0x3d3143df	0.043277618
18	0xbd173447	-0.03691509
19	0x3b681b8a	0.0035416805
20	0x3d564911	0.052315775
21	0xbd481386	-0.048846744
22	0xbd189ecd	-0.03726082
23	0xbc37ddb7	-0.0112222945
24	0x3cff36c5	0.031154046
25	0x3d640b5e	0.055674903
26	0xbcb7f488	-0.022455469
27	0xbd8f773d	-0.07005165
28	0x3cf76c97	0.030203147
29	0x3ce59fd2	0.02803031
30	0xbcb5d514	-0.02219633
31	0xbd17161f	-0.03688633
32	0xbc984c51	-0.018591078
33	0xbd51847c	-0.051151738
34	0xbda17258	-0.078831375
35	0x3d921c72	0.07134332
36	0x3c9def87	0.019279255
37	0x3c3636b3	0.01112144
38	0x3d23cba2	0.03998912
39	0xbd845e23	-0.06463268
40	0x3d06c2b8	0.032900542
41	0x3cf93763	0.030421918
42	0x3de72fd1	0.11288417
43	0x3d892278	0.066960275
44	0xbc1b2050	-0.009468153
45	0xbd6cee2c	-0.057844326
46	0x3d48b703	0.04900266
47	0x3cc6a2b3	0.024247503
48	0xbd5093ae	-0.05092209
49	0x3d85373e	0.06504677
50	0xbc2e544f	-0.010640218
51	0x3d404b56	0.046946846
52	0x3d9fe1db	0.078067504
53	0x3dc2acc5	0.095056094
54	0x3beafb2d	0.007171056
55	0x3d89e1e8	0.06732541
56	0x3cb5f5a7	0.022211863
57	0x3daab77c	0.08335778
58	0x3c8be04e	0.01707473
59	0xbd59b9e6	-0.053155802
60	0xbd31952f	-0.043355163
61	0x3cc45dc7	0.023970498
62	0x3e10d136	0.14142308
63	0xbd5c6f83	-0.053817283
64	0xbc0f4666	-0.008744812
65	0xbdabc4da	-0.08387156
66	0xbc50a66e	-0.012734992
67	0x3d8f647b	0.07001587
68	0x3ceb478e	0.028720643
69	0xbd6cd97b	-0.057824593
70	0x3c98c0a1	0.01864654
71	0x3ce5d1fa	0.028054226
72	0x3ca6171f	0.020274697
73	0x3d24eb39	0.04026339
74	0x3d13fe4d	0.036131192
75	0x3d2b897f	0.041879173
76	0xbc4545c1	-0.012040556
77	0x3c88dfc9	0.016708272
78	0xbcffbdb9	-0.031218396
79	0x3c0833be	0.008313118
80	0x3dbc2cd4	0.09188238
81	0xbd3d77ed	-0.04625695
82	0xbc2a97c4	-0.01041216
83	0xbca57cc0	-0.020201087
84	0x3d13b6a6	0.03606286
85	0x3a55d490	0.00081569795
86	0x3dba0746	0.090834185
87	0xbc9ffc2d	-0.019529426
88	0x3db59b22	0.0886748
89	0xbbf2d83b	-0.0074110306
90	0xbd22ad02	-0.039715774
91	0xbd35c8d7	-0.04438099
92	0x3d852af8	0.06502336
93	0xbd077f0c	-0.033080146
94	0x3cac57ed	0.02103802
95	0xbcc43250	-0.023949772
96	0xbd089259	-0.033342693
97	0xbd4a94a3	-0.049458157
98	0x3dddf177	0.108370714
99	0x3dc84e5d	0.097805716
100	0x3d4c6c1e	0.049907796
101	0xbdf83070	-0.12118614
102	0x3c979bee	0.01850697
103	0xbcd54829	-0.026035385
104	0x3dad4dcb	0.084621035
105	0xbba45132	-0.005014562
106	0x3d9af3bd	0.07566021
107	0xbd0b60a8	-0.034027725
108	0xbcb12a47	-0.021626605
109	0x3cf863cd	0.030321026
110	0x3d200533	0.03906746
111	0x3c684ae1	0.014178009
112	0xbd13f53d	-0.03612255
113	0xbd1801fa	-0.03711126
114	0x3d13c03e	0.03607201
115	0xbd3a66f1	-0.04550833
116	0xbd763bda	-0.060115673
117	0x3c9fc14d	0.019501353
118	0xbd2c5cff	-0.042080875
119	0xbdaa9be9	-0.08330519
120	0xbc9e8e4f	-0.019354967
121	0x3d4ecb72	0.05048699
122	0x3c59afe9	0.013286569
123	0xbd0b77fc	-0.034049973
124	0x3d94dcb8	0.07268661
125	0xbcc2ce1f	-0.023779927
126	0xbd1e5468	-0.038654715
127	0xbc45ddea	-0.012076834
128	0x3c22aeef	0.009929403
129	0x3d35e650	0.044409096
130	0xbc91863d	-0.017764205
131	0xbd4a8a77	-0.049448457
132	0x3ca35e06	0.019942295
133	0xbcb1705d	-0.021660024
134	0xbdb63833	-0.08897438
135	0xbbf47c60	-0.0074611157
136	0xbbf6d0d2	-0.0075322175
137	0x3d2625ea	0.0405635
138	0x3d4562ea	0.048190035
139	0x3d7bb272	0.061449476
140	0xbdbb8389	-0.09155948
141	0xbce43f0a	-0.02786209
142	0x3d86dfc1	0.065856464
143	0xbb0867bf	-0.002081379
144	0x3d6f2838	0.058387965
145	0xbd14d213	-0.036333155
146	0x3c9ff516	0.019526046
147	0xbd12fa8f	-0.035883483
148	0x3cbaa67f	0.02278447
149	0x3cdd37b3	0.027004099
150	0xbd7113b6	-0.05885669
151	0xbca65322	-0.020303313
152	0xbd0f87ad	-0.0350415
153	0xbc98fba0	-0.018674672
154	0x3c8dd71f	0.017314492
155	0xbd5712fc	-0.05250834
156	0xbd283f50	-0.041076005
157	0x3d8110fb	0.06302067
158	0x3d6a32de	0.057177417
159	0x3daf98a6	0.08574037
160	0x3d033dfe	0.032041542
161	0x3d43d8c9	0.047814164
162	0x3a105465	0.000550574
163	0x3d5a24c3	0.053257715
164	0xbd212567	-0.03934231
165	0xbb9ae22b	-0.0047266684
166	0xbac348f2	-0.0014899059
167	0xbd3cf6a3	-0.04613365
168	0xbd38e639	-0.045141432
169	0x3c91ddc2	0.017805938
170	0xbb3b68f0	-0.0028596483
171	0x3cb266ad	0.021777475
172	0xbd76471c	-0.06012641
173	0xbb90332e	-0.0044006323
174	0x3db363ec	0.08759293
175	0xbca03642	-0.019557122
176	0x3bbd428a	0.0057757543
177	0x3d395741	0.045249227
178	0x3d28e92b	0.04123799
179	0xbd9fa338	-0.077948034
180	0x3ca7758e	0.020441797
181	0x3d87eeec	0.066373676
182	0xbaf34ad3	-0.0018561728
183	0x3dad7f8d	0.08471594
184	0xbc20a312	-0.009804504
185	0xbcd71523	-0.026255196
186	0xbd2d8cf7	-0.042370763
187	0xbd8b7aea	-0.06810553
188	0xbd9c514c	-0.07632694
189	0xbce3ddf3	-0.027815795
190	0xbd0c42b2	-0.034243293
191	0x3d2ed66a	0.04268495
192	0x3cb9fd60	0.022703826
193	0x3d64dfc6	0.05587747
194	0xbd0bbf13	-0.03411777
195	0xbcb2e816	-0.021839183
196	0x3c206ab9	0.00979107
197	0xbd1770ad	-0.03697269
198	0xbd8793df	-0.06620001
199	0xbd68a0f1	-0.05679411
200	0x3c460787	0.012086756
201	0xbc698a58	-0.014254175
202	0x3c558efa	0.013034577
203	0x3ca7673f	0.020434974
204	0x3d8063b4	0.06269017
205	0xbd85a936	-0.06526415
206	0x3d5fae71	0.05460972
207	0xbd5cad6e	-0.053876333
208	0xbd1765b0	-0.03696221
209	0xbd98fb73	-0.07469835
210	0x3ac60852	0.0015108681
211	0xbb847fd3	-0.004043558
212	0x3cba59fd	0.022747988
213	0xbce05c9b	-0.027387908
214	0x3cfdeedd	0.030997688
215	0x3d145c0a	0.036220588
216	0x3d7296cb	0.05922584
217	0x3cd225d0	0.025652796
218	0x3e058ed3	0.13042764
219	0xbcd1c3ea	-0.025606114
220	0x3c85ca59	0.016331838
221	0x3d0bdb45	0.03414466
222	0x3d09ce92	0.033644266
223	0x3d2a789b	0.041618925
224	0xbccfbe8d	-0.025359416
225	0xbd585bea	-0.05282203
226	0x3cd67ad3	0.026181614
227	0x3d957a9c	0.072987765
228	0x3dd846d7	0.10560387
229	0xbe13174b	-0.14364354
230	0x3cb382a5	0.021912882
231	0xbc2eb605	-0.010663514
232	0xbd43b3cc	-0.04777889
233	0xbd2742b6	-0.040835105
234	0x3db2d378	0.08731741
235	0xbc855ab9	-0.016278611
236	0x3c96766e	0.018367019
237	0x3d946e7c	0.07247636
238	0xbc23f27c	-0.010006543
239	0x3cb42a8b	0.021992942
240	0xbd4981db	-0.049196105
241	0x3d03be46	0.03216388
242	0x3ceb9a81	0.028760197
243	0x3dc54b04	0.09633449
244	0xbdb47d16	-0.08812921
245	0xbda94c1a	-0.08266468
246	0x3b98ddf3	0.0046651303
247	0xbd625574	-0.055257276
248	0x3ba5225e	0.0050394973
249	0x3ab79aef	0.0014007966
250	0x3c4225b7	0.011849812
251	0x3d5ffb4a	0.054683007
252	0x3da9634e	0.08270894
253	0x3c2a33d5	0.010388334
254	0x3d8b247a	0.06794067
255	0x3cd55031	0.026039215

arith.constant8 f4 [1, 256]
0	0x3e0d78d5	0.13815625
1	0x3d8c41fd	0.06848524
2	0x3c4c88c6	0.012483781
3	0x3cdfe635	0.027331451
4	0xbcaec36f	-0.021333424
5	0x3e0db981	0.13840295
6	0xbe01d0e5	-0.12677343
7	0x3dd9f827	0.106430344
8	0xbe0a1175	-0.13483222
9	0x3de08899	0.10963554
10	0xbdb87d7f	-0.090083115
11	0xbe4ace90	-0.1980536
12	0x3e206b2b	0.15665881
13	0xbd85ada0	-0.06527257
14	0xbcedbf2e	-0.029021826
15	0xbe5b7353	-0.21430711
16	0x3d222b47	0.039592054
17	0xbdc5472b	-0.09632715
18	0x3de02122	0.109438196
19	0x3cd590b2	0.026069973
20	0xbdbc423a	-0.09192319
21	0xbda4f159	-0.08053846
22	0xbd987f84	-0.07446197
23	0x3d8986f0	0.067151904
24	0x3dfc5ab9	0.123219915
25	0xbdeafa9f	-0.114735834
26	0x3dba90db	0.0910966
27	0xbe07512b	-0.13214557
28	0xbd229552	-0.039693184
29	0xbe0910b3	-0.13385276
30	0x3cf0ac33	0.029378986
31	0x3da6a3b4	0.08136693
32	0xbd988879	-0.07447905
33	0xbe208111	-0.15674235
34	0xbe4705d8	-0.19435823
35	0xbe436b8d	-0.19083996
36	0x3e060c2b	0.13090579
37	0xbde3b78e	-0.11118995
38	0x3e41d961	0.1893058
39	0x3da252cb	0.07925948
40	0x3e1aa5b9	0.1510228
41	0xbe04a99d	-0.12955327
42	0xbe0b7bb9	-0.13621415
43	0x3e3cf61e	0.18453261
44	0x3d9fb703	0.077985786
45	0xbe7dc71a	-0.24782982
46	0xbe0a105f	-0.13482808
47	0x3ea5eac6	0.3240568
48	0xbda9e221	-0.08295084
49	0xbe18fb83	-0.14939694
50	0xbe99f9d3	-0.30073413
51	0x3dcef1c0	0.10104704
52	0x3e258f83	0.16168027
53	0x3e14cd06	0.14531335
54	0xbe3971e8	-0.18109858
55	0xbe702ba5	-0.23454149
56	0xbe19bbe8	-0.15013087
57	0x3e9d8603	0.30766305
58	0xbde1800c	-0.11010751
59	0xbe1d8109	-0.15381254
60	0xbd904f6c	-0.070463985
61	0xbe52f99c	-0.20603031
62	0xbd895dd7	-0.06707352
63	0xbea06781	-0.31328967
64	0xbd71feb9	-0.059080813
65	0x3e71ee6e	0.2362611
66	0xbdb0ecb5	-0.08638898
67	0xbe492a02	-0.19644931
68	0xbe3c1b9e	-0.1836991
69	0x3e167210	0.14691949
70	0x3d8b2ee8	0.06796056
71	0x3db53bfd	0.088493325
72	0x3c726e67	0.01479683
73	0x3e576056	0.21032843
74	0x3d7d4800	0.061836243
75	0xbda0a170	-0.07843292
76	0x3de13485	0.109963454
77	0xbe10a475	-0.14125235
78	0x3e11914b	0.14215581
79	0xbe068e56	-0.13140234
80	0xbd1d988f	-0.03847557
81	0xbe3e736c	-0.18598717
82	0xbe879354	-0.2647959
83	0x3e623e44	0.22094065
84	0xba422518	-0.000740604
85	0x3e3d4c00	0.18486023
86	0x3d93ed1a	0.07222958
87	0x3e65e94a	0.22452274
88	0xbd80483c	-0.062637776
89	0xbd793c65	-0.060848612
90	0x3dbc0b72	0.091818705
91	0x3e2fd27d	0.17170139
92	0x3d749501	0.059712414
93	0x3d26c78d	0.04071765
94	0x3e018782	0.12649348
95	0xbe3db709	-0.18526854
96	0x3e0632bf	0.13105296
97	0x3d013522	0.031544812
98	0xbe281333	-0.16413574
99	0x3dac34c0	0.08408499
100	0xbe3fead7	-0.18741928
101	0xbe1a2bfe	-0.15055844
102	0x3ccb3618	0.024806067
103	0xbdce9471	-0.10086907
104	0xbd8ceae0	-0.06880736
105	0x3e039a85	0.12851913
106	0xbe516b99	-0.20451201
107	0xbdd13640	-0.102154255
108	0xbccfc37c	-0.025361769
109	0x3e2a80a2	0.16650632
110	0xbe614f9c	-0.22003025
111	0xbe8a19b3	-0.26972732
112	0xbe357111	-0.17718913
113	0xbd882d38	-0.0664925
114	0x3d8071a9	0.06271679
115	0x3d1e1625	0.038595337
116	0xbe2aaa5b	-0.16666548
117	0xbe276045	-0.16345318
118	0x3d9f8f1c	0.07790968
119	0xbdce32c7	-0.10068279
120	0x3dfc40d6	0.12317054
121	0xbe85ced6	-0.26134366
122	0x3d7ac890	0.061226428
123	0xbe2d3999	-0.16916503
124	0xbe08186b	-0.13290565
125	0x3d67497f	0.056466576
126	0x3dc9e429	0.09857971
127	0x3e250b6b	0.16117637
128	0x3d7ebaae	0.06218975
129	0xbdeb4b09	-0.11488921
130	0x3dec15f2	0.11527623
131	0xbe433c8f	-0.1906607
132	0x3dfde248	0.12396675
133	0x3d3c0c61	0.045910243
134	0x3e12271a	0.14272729
135	0x3dc1e679	0.09467787
136	0x3e1e058a	0.154318
137	0x3dd89363	0.10574987
138	0xbdfac105	-0.12243847
139	0x3e2510e8	0.1611973
140	0xbdf11da7	-0.11773234
141	0xbdc01a48	-0.09380013
142	0x3d8d8fe8	0.069122136
143	0xbe64a5e2	-0.22328904
144	0xbcecc124	-0.02890069
145	0x3df16eea	0.11788733
146	0xbde8735c	-0.11350128
147	0x3d4ce55e	0.05002343
148	0xbe71f2bf	-0.23627757
149	0xbe83a935	-0.25715032
150	0x3de828ee	0.11335932
151	0xbb6f59ae	-0.003652196
152	0x3d7d8c74	0.061901525
153	0xbe4d0a7a	-0.20023528
154	0x3e89769a	0.26848298
155	0xbd9b9391	-0.075965054
156	0x3e3385ff	0.17531584
157	0x3df51623	0.11967113
158	0xbe069043	-0.13140969
159	0x3dc99b3b	0.09844061
160	0x3e512ecd	0.2042801
161	0xbd3fda1a	-0.046838857
162	0x3d27888b	0.040901702
163	0x3e111001	0.14166261
164	0x3debd663	0.115155004
165	0x3d82092e	0.06349407
166	0xbde48f2a	-0.11160119
167	0x3dd97932	0.10618819
168	0xbe09086b	-0.13382117
169	0xbdd3da54	-0.10344377
170	0xbe24ff76	-0.16113076
171	0xbd53dafc	-0.05172251
172	0x3e0d30ad	0.137881
173	0xbd9ba3cb	-0.075996004
174	0x3dc6eef0	0.097135425
175	0xbe8e480f	-0.2778935
176	0x3d66b5e2	0.0563258
177	0x3e2c1262	0.16803887
178	0x3d5f34b2	0.054493614
179	0xbe0a6599	-0.13515319
180	0x3e88799e	0.26655287
181	0xbeaeb610	-0.34123278
182	0xbe4021b8	-0.18762863
183	0x3e247bd6	0.16062865
184	0xbd192d9d	-0.037397016
185	0x3d85f067	0.06539994
186	0x3e47dfc5	0.19518955
187	0x3e274144	0.1633349
188	0x3db48aa8	0.08815509
189	0x3dcc0358	0.09961575
190	0x3e2aa015	0.16662629
191	0xbe0131e4	-0.12616688
192	0xbdcdac10	-0.10042584
193	0xbd68f9c4	-0.05687882
194	0x3e1ab6b6	0.15108761
195	0x3da13e7e	0.078732476
196	0x3e1b7524	0.15181404
197	0xbe33815d	-0.17529817
198	0x3e13aa54	0.14420444
199	0x3e2b3697	0.16720043
200	0xbe49878a	-0.1968061
201	0x3e3281bb	0.17432301
202	0xbe43a794	-0.19106895
203	0xbde1fced	-0.1103457
204	0xbe0106d3	-0.1260026
205	0xbe15eaf1	-0.14640404
206	0x3e9e25b6	0.30888146
207	0xbe2b3035	-0.16717608
208	0x3e3f8dcb	0.18706433
209	0x3e0d27a0	0.13784647
210	0xbd744cc3	-0.05964352
211	0x3da26d56	0.079310104
212	0x3e335be6	0.17515525
213	0x3e8b5659	0.27214316
214	0xbddbcf90	-0.10732949
215	0x3de16146	0.110048816
216	0xbdd7e864	-0.10542372
217	0x3c043d74	0.008071292
218	0x3db370aa	0.08761723
219	0xbe47bdfa	-0.19506064
220	0x3dc770d7	0.09738319
221	0x3e2838e2	0.16427949
222	0xbe3af3ad	-0.18257017
223	0x3e0b9e9f	0.13634728
224	0xbd95f6d6	-0.07322471
225	0x3e14256f	0.14467405
226	0x3e1c6b19	0.1527523
227	0x3db6427b	0.08899399
228	0xbe7249c2	-0.23660949
229	0xbd091342	-0.03346563
230	0x3d0529bd	0.032510508
231	0x3d32dae4	0.04366578
232	0x3d7b012a	0.061280407
233	0x3e5961c0	0.21228695
234	0xbd8d1fdd	-0.06890843
235	0xbdcd3420	-0.10019708
236	0xbdd3a39c	-0.103339404
237	0xbdec969b	-0.11552163
238	0x3db7275a	0.089430526
239	0x3ddaa3a5	0.10675744
240	0x3deeb9b1	0.116565116
241	0xbe1fb9c8	-0.15598214
242	0x3e682a24	0.22672325
243	0xbdd0a0d5	-0.10186926
244	0xbe50f7c8	-0.20407021
245	0x3cd152cf	0.025552182
246	0xbdc1a67e	-0.09455584
247	0xbe29c928	-0.16580641
248	0xbdfa0c56	-0.12209384
249	0xbe0d5849	-0.1380321
250	0x3d9f1ed8	0.07769555
251	0x3e505006	0.20343027
252	0x3e0ffe98	0.14061964
253	0xbd97b9c6	-0.0740848
254	0x3e271f83	0.16320615
255	0xbd37b479	-0.044849847

arith.constant9 f4 [256, 576]
0	0x3de52738	0.11189121
1	0x3d003fb9	0.03131077
2	0x3d5305b9	0.05151913
3	0x3d838e92	0.064236775
4	0x3d072138	0.032990664
5	0x3c3b76a6	0.011441862
6	0xbd47ea89	-0.048807655
7	0x3d1374d6	0.036000095
8	0x3d1804b1	0.03711385
9	0x3d3ca826	0.046058796
10	0xbe27a948	-0.1637317
11	0xbde2d5ba	-0.11075921
12	0x3ce27bf8	0.027647004
13	0xbcbd516f	-0.02311012
14	0x3cc98ffb	0.024604788
15	0x3dabd332	0.08389892
16	0xbd663672	-0.056204267
17	0xbce8b08f	-0.028404502
18	0xbcbd8877	-0.02313636
19	0xbc7d07f1	-0.015443788
20	0x3d762438	0.060093135
21	0x3d53fe0e	0.051755957
22	0x3d38fca2	0.045162804
23	0x3c81d7dd	0.015850002
24	0xbd037a66	-0.03209915
25	0x3d99a118	0.07501429
26	0xbd94f6a7	-0.07273608
27	0x3dc086af	0.09400689
28	0xbd85564d	-0.06510601
29	0xbda6070f	-0.08106815
30	0xbd20992b	-0.039208572
31	0xbd34947a	-0.04408691
32	0x3d8be719	0.06831188
33	0x3cfc9802	0.030834202
34	0x3d9c7b28	0.07640678
35	0xbd826e1e	-0.063686594
36	0x3d0adb51	0.033900563
37	0x3d804e52	0.062649384
38	0xbc33d08e	-0.010975016
39	0xbdc1cd7d	-0.09463022
40	0x3c66d7eb	0.014089565
41	0x3cf9bf84	0.03048683
42	0x3db912f5	0.09036819
43	0x3d5bbf34	0.053649142
44	0xbd88cf6a	-0.06680186
45	0xbcb78653	-0.022402918
46	0x3d829538	0.063761175
47	0x3d520894	0.051277712
48	0x3d858a00	0.06520462
49	0xbd1332c9	-0.035937104
50	0x3dd5c4e9	0.10437948
51	0x3cdfe5a2	0.027331177
52	0xbca784d2	-0.020449076
53	0x3ca46d51	0.020071657
54	0x3d62ace7	0.055340674
55	0xbda7e466	-0.081978604
56	0xbd79f114	-0.061020926
57	0x3c61fab4	0.013792682
58	0x3d5d3cb8	0.054012984
59	0xbbf45836	-0.0074568046
60	0xbd5b88e8	-0.05359736
61	0x3d895afc	0.06706807
62	0x3c1ceace	0.009577466
63	0x3bba7aea	0.005690922
64	0x3ce7fff7	0.028320296
65	0xbcc29d92	-0.023756776
66	0xbd6a87e8	-0.057258517
67	0x3c27894b	0.010225604
68	0xbd6c2788	-0.057654887
69	0x3d22a9be	0.03971266
70	0x3d27827a	0.040895917
71	0xbced2256	-0.028947037
72	0xbdfd4662	-0.1236694
73	0x3cf5cc6d	0.030004704
74	0x3d84b51a	0.06479855
75	0x3d0332c1	0.032030825
76	0xbb8ce7b2	-0.004300081
77	0x3d9a371c	0.075300425
78	0xbd7ba1f3	-0.061433744
79	0xbcc385b8	-0.023867473
80	0xbd1a5849	-0.03768185
81	0x3bd4ad8b	0.0064904145
82	0x3db41782	0.08793546
83	0x3c6c1a8c	0.014410626
84	0xbd2b5dd7	-0.04183754
85	0xbc8fc52d	-0.017550075
86	0x3d4ff8d9	0.05077443
87	0x3d788bb9	0.060680125
88	0x3da41fd8	0.08013886
89	0x3d9d693b	0.07686087
90	0xbcceb69e	-0.025233563
91	0x3c638c41	0.01388842
92	0xbe106398	-0.14100492
93	0xbcb1c611	-0.02170089
94	0x3d98bb4f	0.07457601
95	0xbd65398c	-0.055963084
96	0x3d67b271	0.05656666
97	0x3ce3214a	0.027725834
98	0x3d394dc0	0.045240164
99	0xbd7949b1	-0.060861293
100	0xbd0f1149	-0.034928594
101	0xbb6a4336	-0.0035745627
102	0x3ca16a64	0.019704051
103	0x3c3f4806	0.011674887
104	0xbde7eb8e	-0.11324225
105	0x3d4bbd3b	0.04974101
106	0x3d11af2e	0.035567455
107	0x3daf8337	0.08569949
108	0x3d68b75c	0.05681549
109	0xbd2880bf	-0.041138407
110	0xbd5503c1	-0.052005533
111	0xbdd23dc3	-0.10265686
112	0x3d781b33	0.060572814
113	0x3bf3486e	0.007424406
114	0xbc4462e1	-0.011986465
115	0xbdc10b67	-0.09426003
116	0x3d817e25	0.06322888
117	0xbd4481f6	-0.047975503
118	0xbdd2027d	-0.10254381
119	0x3caff31c	0.021478228
120	0x3d144d33	0.036206435
121	0xbd2c5c66	-0.042080306
122	0x3c78d9a7	0.015188611
123	0x3bae3d9c	0.005317403
124	0x3d67180f	0.05641943
125	0xbdea124f	-0.11429273
126	0x3d15fe29	0.03661934
127	0x3cf4d167	0.029885007
128	0x3c5e3fed	0.013565046
129	0x3d8dd8af	0.06926095
130	0xbdd58770	-0.10426223
131	0xbdca8486	-0.09888558
132	0xbcaf9c1a	-0.02143674
133	0xbd3446d4	-0.04401286
134	0xbc8d18f1	-0.017223807
135	0xbd9ec366	-0.07752113
136	0xbd88e3a7	-0.06684046
137	0x3d245f23	0.040129792
138	0x3d1de1b6	0.038545333
139	0xbd811b2e	-0.06304012
140	0xbce1c117	-0.027557893
141	0xbd687daa	-0.056760468
142	0xbcb613f2	-0.022226308
143	0xbb0362df	-0.0020047945
144	0x3d5e73aa	0.054309525
145	0x3c9b452b	0.01895388
146	0x3d2092c0	0.03920245
147	0x3cad373b	0.0211445
148	0x3da98948	0.082781374
149	0xbce7c3c6	-0.028291594
150	0x3d2bf1e4	0.04197873
151	0x3be2a0af	0.0069161276
152	0xbbf583dd	-0.007492526
153	0xbdd536ef	-0.104108684
154	0x3cd3d894	0.025860108
155	0x3dc192a9	0.09451801
156	0x3dc9337f	0.09824275
157	0x3e05c215	0.13062318
158	0xbd1fbe52	-0.038999863
159	0x3d418b00	0.0472517
160	0x3d903e86	0.070431754
161	0x3d78db7c	0.06075619
162	0xbd9dbfef	-0.07702624
163	0x3cc3dac6	0.02390803
164	0xbcf71d6c	-0.030165397
165	0x3c9e6234	0.019333936
166	0xbb43d745	-0.002988295
167	0xbd8137aa	-0.06309445
168	0x3db1f2d1	0.08688892
169	0x3d3f9d73	0.046781015
170	0x3c88c72a	0.016696531
171	0x3c77fbfe	0.015135763
172	0xbdd71e65	-0.10503844
173	0xbd40bdac	-0.047055885
174	0xbd787306	-0.06065657
175	0xbc139a12	-0.009008901
176	0xbbedf15d	-0.0072614388
177	0x3db3fbf0	0.08788288
178	0x3d868f50	0.065703034
179	0xbbfbbfb6	-0.007682766
180	0xbd1d2940	-0.038369417
181	0xbd8e6506	-0.069528624
182	0x3c1987d5	0.009370764
183	0xbd8780b2	-0.066163436
184	0xbbee03f8	-0.0072636567
185	0xba73a7b7	-0.0009294706
186	0x3d1b4350	0.03790599
187	0xbbe7cdca	-0.0070740925
188	0x3c909f20	0.017654002
189	0x3c916e37	0.01775275
190	0xbd3526a8	-0.04422632
191	0xbdbab780	-0.09117031
192	0x3d6d777f	0.05797529
193	0x3d793dd3	0.060849976
194	0xbd6b4320	-0.057437062
195	0x3d9f2ce0	0.07772231
196	0xbcf39d46	-0.02973808
197	0xbc3a2dd7	-0.011363468
198	0xbd75ffc8	-0.060058385
199	0xbc2daacc	-0.010599803
200	0xbd225293	-0.03962953
201	0xbc14279d	-0.009042648
202	0xbe229def	-0.1588056
203	0xbe0556df	-0.1302142
204	0xbd6d1452	-0.057880707
205	0x3d2b0822	0.041755803
206	0xbc8b852e	-0.017031278
207	0xbd23d185	-0.039994735
208	0xbd9fef3c	-0.07809302
209	0xbdba30b9	-0.09091324
210	0xbcc9212d	-0.024551952
211	0xbd584aca	-0.0528057
212	0x3d992341	0.07477427
213	0xbce27b62	-0.027646724
214	0x3d9a3479	0.075295396
215	0x3c105053	0.008808213
216	0xba3012c4	-0.00067166635
217	0x3d8abb13	0.06773963
218	0xbd80ae6e	-0.0628327
219	0x3d9b6554	0.07587686
220	0x3d938f56	0.072050735
221	0x3c380530	0.011231706
222	0x3dddba6a	0.10826571
223	0x3d4b2e8b	0.049604934
224	0xbde98cc9	-0.11403806
225	0x3e061fd7	0.13098083
226	0x3d70ac3d	0.05875801
227	0xbdf1503d	-0.11782882
228	0xbc75e068	-0.015007116
229	0x3d9ba466	0.07599716
230	0x3d526cdc	0.051373348
231	0xba81cbee	-0.0009902695
232	0xbd2f160b	-0.04274563
233	0xbd62cf12	-0.05537326
234	0xbda69526	-0.081339166
235	0x3dae4654	0.08509508
236	0xbd397c51	-0.045284573
237	0x3dc176b3	0.09446468
238	0x3d42f5a8	0.047597557
239	0x3d1d5c48	0.038418084
240	0x3a9ffabd	0.0012205463
241	0xbd05a662	-0.03262938
242	0xbd40d659	-0.047079418
243	0x3c184af2	0.009295212
244	0x3d8b955f	0.068156
245	0xbdc5cf58	-0.09658688
246	0xbd9f3217	-0.07773226
247	0xbd4894cf	-0.04897004
248	0xbd1b8dc7	-0.037977006
249	0xbdafcbf8	-0.08583826
250	0xbd24ce12	-0.040235586
251	0xbdcf8b15	-0.1013395
252	0xbdcee1ab	-0.101016365
253	0xbd516d0b	-0.051129382
254	0xbd3d2acc	-0.046183392
255	0x3e15e41e	0.14637801
